s1_development_environment/exercise_files/final_exercise/trained_model.pt (torch, 976539 bytes, 10 tensors)

weight f4 [32, 1, 3, 3]
0.3503695 -0.004054023 -0.28257614 0.3293954 0.24083017 -0.1453309 0.24111933 0.037915785
-0.24874768 -0.18402494 0.24931759 -0.031169958 0.25191998 0.31525913 0.06270345 -0.14913017
0.28504345 -0.18828416 -0.28143427 0.13271907 -0.2676194 0.13950948 -0.2955297 -0.25946867
-0.2383391 -0.33882764 0.30180717 -0.32984737 0.078743964 0.2588144 -0.17790757 0.028581204
0.287879 -0.10951881 -0.13123217 0.0161758 0.13519627 0.24073814 0.04668615 0.20658307
0.28646836 -0.15777607 -0.25045228 0.12679641 0.25781867 -0.14609414 0.4058192 0.04955389
-0.24828386 0.30317882 -0.12730034 -0.22004789 -0.077977 0.17105077 0.24381028 -0.3212482
-0.30977982 -0.08706744 -0.05781742 -0.262419 0.22704917 0.37484384 0.32612783 0.04412379
-0.20898995 0.08765627 0.12654543 -0.21199705 0.3178432 0.34226072 0.019148063 0.08951653
-0.19451526 0.24243975 -0.12088518 -0.16851403 -0.36595157 -0.22571535 0.11252508 -0.025133325
0.35678852 -0.031402025 -0.043227937 0.0973733 -0.28224388 -0.19296557 -0.317702 0.09092542
-0.20172915 0.06605092 -0.0916703 -0.22433396 -0.11351393 0.048311327 0.03527296 -0.13449581
0.24934979 -0.0537782 -0.18375146 0.3685432 -0.14116812 0.3995634 -0.20823953 0.2745082
-0.1687013 -0.017104607 0.271223 0.022647517 0.31228885 0.3830028 0.0568452 0.33531553
-0.029084433 0.22925124 -0.31944484 -0.35084522 -0.03473273 0.2678003 -0.25186625 0.3338908
0.024196977 0.22031485 0.16426495 -0.024083983 0.21995221 0.027321277 -0.30912474 -0.11683717
0.021629844 0.3723055 0.3666506 0.23812522 0.25553516 -0.04070986 -0.2155349 0.122568876
0.16937815 0.3047403 -0.024597038 0.26339114 -0.02728431 0.29650393 0.37149203 -0.05083945
-0.26925552 -0.12569094 -0.16345842 0.2146743 -0.21412942 0.4085783 -0.04314102 0.36643377
0.07295723 0.25791347 0.16699521 -0.10871023 0.17586981 0.24185573 -0.26279706 -0.21530026
0.20113103 0.124469414 -0.16715266 0.28495002 0.1714007 0.1309418 0.16118504 0.31635705
-0.009387807 0.043870434 0.21705447 -0.33770058 0.16758841 0.13252977 -0.13840416 -0.0859862
-0.1067089 -0.072435096 0.24305838 0.3984761 0.32286534 -0.22323538 -0.33854446 -0.32263264
-0.3241104 -0.025713759 -0.10691118 -0.16051468 -0.25565594 -0.18729375 -0.27497256 0.32392734
-0.20129739 -0.377297 0.14170599 -0.102180056 0.13166894 -0.2899044 -0.16402978 0.1627032
-0.18930663 -0.18747374 0.1983403 0.33422765 0.34402332 0.015678823 0.011762339 -0.28073877
-0.1901641 0.12621328 0.25191638 0.12924418 -0.24893875 0.29918948 0.35330284 -0.11719844
0.228127 -0.063469514 -0.30712682 -0.05174992 0.023972394 -0.18260565 -0.25730848 0.32583
0.41551298 -0.29755127 -0.18623182 0.13645817 0.28851253 -0.21734178 -0.08367389 0.2603452
-0.34476453 -0.16808869 0.05010124 0.23253472 0.17970844 -0.12356052 0.18005964 0.33904558
-0.13032217 -0.21133772 -0.0073339725 -0.115219355 -0.11619185 -0.19691795 -0.08870551 -0.27926993
0.39673594 -0.31534213 -0.053694367 0.15918706 -0.2262458 0.31021142 0.16520472 -0.39037505
00000000: a263 b33e 9cd7 84bb d2ad 90be 84a6 a83e
00000010: 2f9c 763e a0d1 14be fce7 763e 954d 1b3d
00000020: b6b7 7ebe 0971 3cbe 1c4d 7f3e 2458 ffbc
00000030: a8fb 803e a569 a13e ab6a 803d 94b5 18be
00000040: 37f1 913e 90cd 40be 2718 90be 82e7 073e
00000050: 6905 89be 93db 0e3e ab4f 97be 14d9 84be
00000060: 2a0f 74be d17a adbe 7886 9a3e c1e1 a8be
00000070: 8444 a13d 5283 843e 672d 36be 2123 ea3c
00000080: e064 933e 664b e0bd ba61 06be 1c83 843c
00000090: e470 0a3e 0f84 763e fa39 3f3d 838a 533e
000000a0: fbab 923e 0d90 21be 483b 80be ebd6 013e
000000b0: cf00 843e b499 15be 89c7 cf3e 05f9 4a3d
000000c0: 203e 7ebe 413a 9b3e 055b 02be 3c54 61be
000000d0: 68b2 9fbd ef27 2f3e 67a9 793e a57a a4be
000000e0: 769b 9ebe 6a50 b2bd f6d1 6cbd c85b 86be
000000f0: 947f 683e 88eb bf3e 3afa a63e 26bb 343d
00000100: 7601 56be 2185 b33d 2095 013e c115 59be
00000110: 58bc a23e cc3c af3e 66dc 9c3c 7154 b73d
00000120: 022f 47be 2042 783e a692 f7bd f18e 2cbe
00000130: 015e bbbe ed21 67be 8d73 e63d 67e4 cdbc
00000140: fcac b63e 699f 00bd c70f 31bd a76b c73d
00000150: 4582 90be c498 45be d6a9 a2be 1b37 ba3d
00000160: 1692 4ebe b445 873d a3bd bbbd cdb7 65be
00000170: fe79 e8bd 19e2 453d 617a 103d 45b9 09be
00000180: 8d55 7f3e 8846 5cbd 5829 3cbe b2b1 bc3e
00000190: 608e 10be 9393 cc3e be3c 55be 578c 8c3e
000001a0: 09c0 2cbe f61e 8cbc bedd 8a3e 4987 b93c
000001b0: 53e4 9f3e f118 c43e 83d6 683d 7aae ab3e
000001c0: 7a42 eebc d6c0 6a3e 468e a3be fca1 b3be
000001d0: e843 0ebd 1f1d 893e 9df4 80be bcf3 aa3e
000001e0: bd38 c63c 379a 613e 1235 283e c64b c5bc
000001f0: 273b 613e dfd0 df3c 9945 9ebe 5448 efbd
00000200: 1231 b13c d49e be3e a1b9 bb3e 19d7 733e
00000210: 81d5 823e 62bf 26bd 2eb5 5cbe 6405 fb3d
00000220: 7771 2d3e ec06 9c3e ba7f c9bc 34db 863e
00000230: 5883 dfbc 5dcf 973e 3434 be3e 073d 50bd
00000240: dcdb 89be 20b5 00be a561 27be 94d3 5b3e
00000250: be44 5bbe 2d31 d13e a3b4 30bd 359d bb3e
00000260: 9a6a 953d 3c0d 843e cb00 2b3e 78a3 debd
00000270: 3717 343e 07a9 773e 568d 86be ac77 5cbe
00000280: 4bf5 4d3e d2e9 fe3d 112a 2bbe f8e4 913e
00000290: aa83 2f3e 9b15 063e b10d 253e 8df9 a13e
000002a0: 51cf 19bc 7cb1 333d 8743 5e3e 17e7 acbe
000002b0: 4c9c 2b3e e2b5 073e d2b9 0dbe 8819 b0bd
000002c0: 328a dabd da58 94bd 4ce4 783e 0f05 cc3e
000002d0: 9b4e a53e d197 64be b355 adbe 1b30 a5be
000002e0: ccf1 a5be a9a5 d2bc 40f4 dabd f65d 24be
000002f0: 56e5 82be efc9 3fbe 34c9 8cbe ced9 a53e
00000300: e720 4ebe 132d c1be 601b 113e c743 d1bd
00000310: 39d4 063e 596e 94be 6cf7 27be ab9b 263e
00000320: 99d9 41be 1ef9 3fbe b819 4b3e e31f ab3e
00000330: d323 b03e e070 803c d3b6 403c febc 8fbe
00000340: 61ba 42be 0e3e 013e 2ffb 803e 9658 043e
00000350: cde9 7ebe 5d2f 993e 1ce4 b43e bc05 f0bd
00000360: 209a 693e 4efc 81bd ba3f 9dbe b9f7 53bd
00000370: c161 c43c fafc 3abe f0bd 83be 31d3 a63e
00000380: 1ebe d43e a458 98be 8eb3 3ebe b1bb 0b3e
00000390: eab7 933e d88e 5ebe 375d abbd f74b 853e
000003a0: fa84 b0be 711f 2cbe f536 4d3d 951d 6e3e
000003b0: 7d05 383e 4c0d fdbd 8e61 383e 6297 ad3e
000003c0: 2d73 05be ea68 58be d251 f0bb 20f8 ebbd
000003d0: fef5 edbd dca4 49be 3cab b5bd 78fc 8ebe
000003e0: f920 cb3e 8674 a1be a0ee 5bbd ef01 233e
000003f0: fbac 67be 08d4 9e3e 6d2b 293e 3ddf c7be

bias f4 [32]
-0.24157058 -0.0010682615 0.3217679 0.2250198 -0.13614382 -0.19571237 -0.065720156 0.17828053
0.018976731 0.045213345 0.012222033 -0.2704769 0.051611193 0.2924951 0.1279205 -0.17950799
-0.109679855 0.24129704 0.09562842 -0.12254665 -0.09544992 0.3128816 0.11146258 0.32076284
-0.21971264 0.17015976 0.2970662 -0.22895953 -0.105403274 0.10797977 -0.043385375 0.16984613
00000000: 475e 77be e804 8cba c3be a43e 976b 663e
00000010: 4969 0bbe d368 48be 4a98 86bd 2c8f 363e
00000020: 1775 9b3c a131 393d ec3e 483c f37b 8abe
00000030: 4266 533d ebc1 953e 97fd 023e f1d0 37be
00000040: d59f e0bd 9216 773e d5d8 c33d bdf9 fabd
00000050: 3f7b c3bd 0432 a03e 7e46 e43d 073b a43e
00000060: 5afc 60be 5c3e 2e3e 1019 983e 5e74 6abe
00000070: acdd d7bd 7f24 dd3d ddb4 31bd 25ec 2d3e

weight f4 [64, 32, 3, 3]
0.017194286 -0.0024659198 -0.120338894 -0.06265502 -0.08950707 -0.10328212 -0.02671436 -0.02160127
0.04488295 0.043239404 -0.014382085 -0.07625837 -0.03940325 -0.054238457 -0.03256372 -0.021209959
0.0016150182 0.036845595 0.0052645677 0.022801755 0.018386545 0.07912023 -0.03420027 0.021672137
0.009466453 0.058066454 -0.028740672 0.011941948 0.054526616 -0.0136689115 0.045363132 -0.031236263
0.045801435 0.01590209 0.009474364 0.039831292 0.012601889 -0.05099336 0.025047725 -0.07180413
-0.031149043 0.020302126 -0.03737922 0.016129173 0.038970817 0.024033617 -0.021745658 -0.026520917
-0.033872157 -0.038262345 -0.062404845 -0.09468664 -0.08798093 -0.050852913 -0.076875195 0.025422767
-0.050596956 -0.06557666 0.008368559 0.018986346 -0.037041605 0.01778906 -0.006958948 0.00056408683
-0.07929757 -0.039395176 0.0066089416 -0.029061792 0.020456932 0.010699197 0.02806899 0.044341486
0.012534048 0.019027658 0.043208726 0.04735229 0.05328018 0.06964907 0.046326924 0.04916892
0.033244494 0.05913915 0.03580552 -0.016795333 0.042978223 -0.0038054995 0.012020922 0.06832156
0.026893489 0.025050845 0.033272702 0.05874136 0.038391836 0.05623005 0.036806434 0.02637162
-0.047669426 -0.01180806 -0.013746162 -0.0074298726 0.006418037 -0.0107047595 -0.094147466 -0.05476695
0.001850991 -0.00035011492 0.060988203 0.053018525 -0.02546808 0.036194816 -0.025922893 -0.041644536
-0.10319344 0.020199362 -0.094023004 0.002390558 -0.0026195364 0.026852835 -0.041405383 0.02472246
-0.078993455 -0.052132923 0.03292181 -0.0488062 0.073419675 -0.016084125 0.010886091 -0.07999677
-0.053765394 -0.09454466 -0.10440052 0.014149543 0.0467498 0.0070299516 0.017210137 -0.024705093
-0.0036057169 -0.0599843 -0.08937785 -0.012163059 0.018453006 -0.016451245 0.041082278 0.0570864
-0.12800762 -0.0995779 -0.018064607 -0.029157098 -0.033099316 0.06764826 0.019737443 -0.00033368435
0.06517975 0.020332066 -0.04492692 0.0054079057 -0.019282991 0.040822145 0.004020914 -0.0028192208
0.018274369 -0.002518439 0.023138778 -0.03526019 -0.06675106 -0.11756784 -0.024288097 -0.0028576164
-0.0039236504 0.040336482 0.074498385 -0.08206527 -0.023285324 0.057322115 -0.03302823 0.030002236
0.010533055 0.08460886 0.05195133 -0.010066275 0.013889176 0.034155086 0.013121927 -0.019023433
0.055871207 0.04981476 0.068156995 0.04160046 0.052306782 0.007347375 0.034201056 -0.037100334
-0.035231497 -0.007914682 0.026863392 0.01287944 0.06367021 0.022383267 0.038653906 -0.036986046
0.002022179 0.024323221 -0.042702567 0.05025106 -0.0123107135 0.067697614 0.02073509 -0.0009395875
0.04551523 -0.047230046 0.011247267 -0.03907349 0.0076998435 -0.018742371 -0.022965863 0.053857338
-0.025460565 0.013357161 -0.026216416 0.009029634 -0.006365559 0.064353265 0.080621354 0.08015866
-0.012349864 -0.011668823 0.037385568 -0.031399325 -0.04441752 0.03373736 0.012151277 0.03404124
0.00973103 -0.027617471 0.016389782 0.023395052 0.025676511 -0.046547268 -0.018282926 -0.013854476
-0.03868175 -0.028236134 0.054721497 -0.023679959 -0.08741375 0.03999121 0.0019306939 -0.008750926
-0.027000913 -0.009700292 0.09152329 0.01334648 0.008899234 -0.0767133 0.013660345 -0.0119374795
00000000: 08db 8c3c 459b 21bb 3d74 f6bd 4651 80bd
00000010: 7c4f b7bd 9385 d3bd 13d8 dabc 26f5 b0bc
00000020: 2fd7 373d cd1b 313d d6a2 6bbc 592d 9cbd
00000030: 4d65 21bd 2529 5ebd 8961 05bd 82c0 adbc
00000040: 05af d33a 68eb 163d 6582 ac3b bfca ba3c
00000050: 619f 963c ca09 a23d 9515 0cbd c489 b13c
00000060: 2f19 1b3c 17d7 6d3d 8f71 ebbc 29a8 433c
00000070: 4d57 5f3d 92f3 5fbc b1ce 393d 31e3 ffbc
00000080: 499a 3b3d 1a45 823c 5d3a 1b3c 2326 233d
00000090: 2778 4e3c 6ade 50bd e330 cd3c 0b0e 93bd
000000a0: 472c ffbc a550 a63c f41a 19bd 5421 843c
000000b0: dd9f 1f3d 26e2 c43c f323 b2bc 6542 d9bc
000000c0: 88bd 0abd fab8 1cbd 399c 7fbd 12eb c1bd
000000d0: 592f b4bd 254b 50bd be70 9dbd 6843 d03c
000000e0: c13e 4fbd 0e4d 86bd 481c 093c 4189 9b3c
000000f0: f0b8 17bd 5dba 913c e307 e4bb 3adf 133a
00000100: c466 a2bd d65c 21bd d28f d83b ff12 eebc
00000110: 4c95 a73c af4b 2f3c f0f0 e53c 6b9f 353d
00000120: 9c5b 4d3c e4df 9b3c a2fb 303d 7af4 413d
00000130: 513c 5a3d 2ca4 8e3d 4dc1 3d3d 5965 493d
00000140: 612b 083d e53b 723d cfa8 123d 5e96 89bc
00000150: ef09 303d b065 79bb 67f3 443c 2dec 8b3d
00000160: bc4f dc3c 6e37 cd3c f548 083d c89a 703d
00000170: c240 1d3d 7b51 663d 58c2 163d 4c09 d83c
00000180: 0441 43bd 9876 41bc 9537 61bc 4a76 f3bb
00000190: 664e d23b 0463 2fbc 63d0 c0bd 4f53 60bd
000001a0: f49c f23a a18f b7b9 c4ce 793d f429 593d
000001b0: 6fa2 d0bc 0441 143d 3f5c d4bc 7693 2abd
000001c0: 1557 d3bd 2279 a53c 228f c0bd e8aa 1c3b
000001d0: 87ac 2bbb 7afa db3c b198 29bd c286 ca3c
000001e0: 52c7 a1bd 5589 55bd 05d9 063d 03e9 47bd
000001f0: 0e5d 963d dbc2 83bc 935b 323c 59d5 a3bd
00000200: 1a39 5cbd a1a0 c1bd f1cf d5bd 7cd3 673c
00000210: b87c 3f3d 825b e63b 46fc 8c3c 5662 cabc
00000220: e44d 6cbb 19b2 75bd bc0b b7bd 9147 47bc
00000230: c22a 973c c3c4 86bc e445 283d 6ed3 693d
00000240: 6e14 03be 7fef cbbd 3afc 93bc deda eebc
00000250: 2693 07bd 2c8b 8a3d 6bb0 a13c 5bf2 aeb9
00000260: f67c 853d 6f8f a63c 4a05 38bd cd34 b13b
00000270: 5df7 9dbc 1f35 273d dfc1 833b adc2 38bb
00000280: 21b4 953c 650c 25bb 898d bd3c fd6c 10bd
00000290: c8b4 88bd 68c7 f0bd d5f7 c6bc d946 3bbb
000002a0: f791 80bb de37 253d 9c92 983d d611 a8bd
000002b0: ddc0 bebc 98ca 6a3d 9c48 07bd 40c7 f53c
000002c0: d692 2c3c 6947 ad3d ebca 543d 04ed 24bc
000002d0: 6d8f 633c 34e6 0b3d 5afd 563c 08d7 9bbc
000002e0: 35d9 643d 900a 4c3d e595 8b3d 3e65 2a3d
000002f0: a33f 563d 40c2 f03b 6816 0c3d 85f6 17bd
00000300: e74e 10bd 95ac 01bc 9e10 dc3c 4904 533c
00000310: 8765 823d 1d5d b73c 8f53 1e3d ae7e 17bd
00000320: 8986 043b 7e41 c73c e3e8 2ebd 0ed4 4d3d
00000330: e0b2 49bc 0ca5 8a3d a3dc a93c a64e 76ba
00000340: 2e6e 3a3d 4b74 41bd 7546 383c 860b 20bd
00000350: f84e fc3b 9a89 99bc e822 bcbc 8399 5c3d
00000360: ad92 d0bc fed7 5a3c cfc3 d6bc 08f1 133c
00000370: 2e96 d0bb a5cb 833d cf1c a53d 392a a43d
00000380: 1557 4abc 972e 3fbc 9c21 193d 949c 00bd
00000390: 25ef 35bd 3030 0a3d 2616 473c d46e 0b3d
000003a0: e66e 1f3c 093e e2bc dd43 863c fba6 bf3c
000003b0: 8c57 d23c 59a8 3ebd 13c6 95bc e2fd 62bc
000003c0: c170 1ebd 774f e7bc a623 603d 79fc c1bc
000003d0: fb05 b3bd d3cd 233d 560f fd3a 0b60 0fbc
000003e0: 0531 ddbc f9ed 1ebc 9070 bb3d 32ab 5a3c
000003f0: 18ce 113c dd1b 9dbd a4cf 5f3c 6b95 43bc

bias f4 [64]
0.06268033 0.048731983 -0.043951564 -0.023163205 0.016586214 -0.040245347 -0.0012305424 -0.035339843
0.05334139 0.00802863 -0.00037427255 0.006962367 0.04275175 0.021014314 -0.05672079 0.028406197
-0.012862762 0.013972651 0.058874924 0.012094058 -0.04823831 -0.004291665 0.028361231 0.022804478
-0.029731086 0.0022306826 0.06488042 0.028205395 -0.031349313 0.05504656 0.00014429864 0.0144435195
-0.05647525 -0.03095887 -0.046394933 0.03777704 0.017735949 -0.051759038 0.030223481 -0.0078032725
-0.014502242 0.005353258 -0.04693564 0.056278475 -0.04719938 -0.025693288 -0.045243636 0.010791035
0.05246384 0.054864023 -0.03316671 0.053376373 -0.036751416 -0.012466506 0.025970198 0.030562645
-0.058955178 -0.023353998 -0.023188135 -0.056553613 0.014672 0.027426517 0.05210958 -0.032040913
00000000: 8b5e 803d 309b 473d 8e06 34bd c3c0 bdbc
00000010: d0df 873c 4ed8 24bd 274a a1ba 83c0 10bd
00000020: 807c 5a3d 848a 033c 033a c4b9 9124 e43b
00000030: 761c 2f3d 3626 ac3c 0f54 68bd 1db4 e83c
00000040: 56be 52bc 8ced 643c d526 713d 2826 463c
00000050: 8995 45bd 18a1 8cbb d055 e83c 75d0 ba3c
00000060: 9b8e f3bc a530 123b 07e0 843d 000f e73c
00000070: 2368 00bd 8078 613d df4e 1739 83a4 6c3c
00000080: 9752 67bd 759d fdbc 9d08 3ebd 19bc 1a3d
00000090: fb4a 913c 4901 54bd 3c97 f73c 98b2 ffbb
000000a0: d09a 6dbc 626a af3b 963f 40bd 4284 663d
000000b0: 2354 41bd bb7a d2bc 6451 39bd e2cc 303c
000000c0: 53e4 563d 19b9 603d d1d9 07bd 2fa1 5a3d
000000d0: a788 16bd 5140 4cbc 74bf d43c 835e fa3c
000000e0: fc7a 71bd e250 bfbc 0bf5 bdbc c3a4 67bd
000000f0: d462 703c 93ad e03c db70 553d 553d 03bd

weight f4 [128, 64, 3, 3]
-0.0058592493 -0.02395759 -0.019754138 0.0011962666 0.01584739 -0.03992736 0.050729495 -0.037561573
-0.024673918 0.010489461 -0.036173906 0.032457538 0.026664125 0.007136392 -0.02688037 0.054105114
-0.0028069152 0.007951933 -0.030593617 -0.03911232 0.024217835 -0.024522347 -0.044765063 0.0154024195
-0.022179281 0.06366525 0.058767825 -0.010487113 0.03242653 0.058983646 -0.048116323 -0.0059875385
0.031910673 0.040302597 0.0030835269 0.020478796 -0.012382962 0.0025371104 -0.005596397 -0.06393132
-0.0060669547 -0.024824493 0.027548693 0.044096522 0.06694441 -0.011517609 0.032794524 -0.0010796284
0.052183922 0.01104507 0.052173175 -0.009777244 -0.0099469265 -0.031210111 0.04271883 0.039318647
-0.0054978775 -0.021474589 0.005077757 0.024549916 -0.0060303905 0.011015279 -0.065409884 0.00914006
-0.035860453 -0.06944814 -0.043342978 -0.0010247541 -0.025093839 -0.008327317 -0.021702122 -0.058866654
-0.026437059 0.02160294 0.061011646 0.0151745025 -0.033520848 0.0013636142 0.034279365 0.012173865
0.012989247 -0.0023136823 0.010293671 0.016575733 -0.03329331 0.026750254 -0.020033922 -0.015939798
0.015668273 0.055036638 -0.025558164 0.03896994 0.059715938 -0.024127148 -0.011045695 0.031692386
-0.0037029975 -0.0013655402 -0.024549363 0.029501121 0.0154231945 -0.014140657 0.037360486 -0.018981587
0.015518086 0.021696642 -0.033161957 0.032561164 -0.013533947 0.003903441 -0.019207163 -0.0114866635
0.034617916 -0.011169621 0.022738516 -0.02896261 -0.031790093 -0.040447436 0.021961644 0.017008502
0.021204451 0.013150702 -0.017753948 -0.035785276 -0.012931137 0.059988722 0.025979854 0.04172795
0.044202294 -0.039012805 -0.03417392 0.0026416488 0.022688977 0.02251215 0.04625219 -0.013563946
-0.0068324385 0.06916181 -0.04321974 -0.022329055 -0.019519804 -0.053942386 0.0065849777 0.05936712
-0.026257606 0.025865883 0.056391012 -0.027846904 0.03313822 0.007894354 -0.033607516 0.005716413
0.026056124 -0.039261665 -0.02911077 0.046603907 -0.066295 -0.0387769 0.04106054 -0.039006397
0.032496832 0.037973214 -0.0027755674 -0.01605129 0.03079959 0.034454294 -0.031696364 -0.024820672
0.014663012 -0.0010250091 -0.032890797 -0.020393351 -0.024470339 0.021892587 -0.06339726 0.0115914
0.032381855 0.013148955 0.00016768677 0.034379035 -0.007876293 -0.049412377 0.014244077 -0.06379836
0.010370813 -0.026701609 -0.053962663 0.03349445 0.0014688442 -0.012272611 0.045335133 -0.0030062196
-0.015552434 0.019915262 -0.03483062 -9.837772e-05 -0.03504075 -0.0077733947 0.0071269968 -0.029028868
0.022803057 0.018651051 0.008552422 0.07049663 -0.014482305 0.0014672044 -0.015859587 -0.013853543
-0.020936092 -0.0018302673 -0.028566878 0.01386906 0.014944034 0.0017720395 -0.021967487 -0.008589317
0.015453525 0.011550131 -0.044818476 -0.011436246 -0.011920292 -0.030028412 -0.017654223 0.002560941
0.07206717 0.014179977 -0.007454468 -0.0055711796 -0.02582462 -0.03818088 -0.0097378045 -0.038609024
-0.03642597 0.024122182 0.015535622 0.014953967 -0.026908964 -0.02392297 -0.051524647 0.011791683
-0.058525823 -0.10567109 -0.043807793 0.011731536 -0.015677955 -0.028423445 0.014084942 -0.009065334
-0.0013994625 -0.032258462 -0.0060143694 0.0039278595 -0.05922712 -0.01070328 -0.011190251 -0.039901894
00000000: f2fe bfbb b542 c4bc 6ed3 a1bc 0ccc 9c3a
00000010: 63d2 813c df8a 23bd bbc9 4f3d 2ada 19bd
00000020: f520 cabc fddb 2b3c 172b 14bd 32f2 043d
00000030: b96e da3c 65d8 e93b 3934 dcbc 539d 5d3d
00000040: 39f4 37bb d348 023c 779f fabc 3d34 20bd
00000050: 7b64 c63c 17e3 c8bc 925b 37bd 6e5a 7c3c
00000060: 53b1 b5bc ed62 823d 88b6 703d 24d2 2bbc
00000070: aed1 043d d698 713d 9f15 45bd 1d33 c4bb
00000080: c4b4 023d 5614 253d ff14 4a3b 26c3 a73c
00000090: e8e1 4abc a645 263b fb61 b7bb 6dee 82bd
000000a0: 4ecd c6bb bc5c cbbc ccad e13c 8e9e 343d
000000b0: 271a 893d 5ab4 3cbc 8d53 063d 5182 8dba
000000c0: cfbe 553d 62f6 343c 8ab3 553d bc30 20bc
000000d0: 6ff8 22bc 59ac ffbc f1f9 2e3d 970c 213d
000000e0: 8a27 b4bb 7aeb afbc 5063 a63b e81c c93c
000000f0: 959a c5bb 6e79 343c 9ef5 85bd 31c0 153c
00000100: 69e2 12bd d43a 8ebd 6888 31bd 0b51 86ba
00000110: 9891 cdbc 4d6f 08bc a6c8 b1bc 291e 71bd
00000120: 8892 d8bc a6f8 b03c 59e7 793d 7a9e 783c
00000130: 284d 09bd 4dbb b23a 8568 0c3d e474 473c
00000140: dad0 543c 26a1 17bb c9a6 283c d5c9 873c
00000150: 915e 08bd 5923 db3c 2e1e a4bc 2e94 82bc
00000160: c05a 803c 196e 613d 5b5f d1bc f29e 1f3d
00000170: b398 743d 4ca6 c5bc 01f9 34bc e0cf 013d
00000180: fdad 72bb edfb b2ba bf1b c9bc 56ac f13c
00000190: 91b1 7c3c 37ae 67bc 4f07 193d 467f 9bbc
000001a0: 923f 7e3c 28bd b13c d5d4 07bd db5e 053d
000001b0: 7dbd 5dbc dfd0 7f3b 5758 9dbc 8f32 3cbc
000001c0: 84cb 0d3d c900 37bc 2046 ba3c ff42 edbc
000001d0: 5436 02bd 36ac 25bd e8e8 b33c 6a55 8b3c
000001e0: f5b4 ad3c 0b76 573c ba70 91bc 9593 12bd
000001f0: 1fdd 53bc bcb6 753d b4d3 d43c edea 2a3d
00000200: 770d 353d e4cb 1fbd f4f9 0bbd 831f 2d3b
00000210: 3cde b93c 676b b83c f072 3d3d 503b 5ebc
00000220: a6e2 dfbb b5a4 8d3d 2f07 31bd 6ceb b6bc
00000230: ffe7 9fbc b1f2 5cbd ccc6 d73b f02a 733d
00000240: 311a d7bc b0e4 d33c 43fa 663d 311f e4bc
00000250: f1bb 073d 5257 013c 09a8 09bd bf50 bb3b
00000260: a773 d53c d7d0 20bd b679 eebc bde3 3e3d
00000270: acc5 87bd 87d4 1ebd 192f 283d 2cc5 1fbd
00000280: 661b 053d cd89 1b3d 4be6 35bb ff7d 83bc
00000290: 6c4f fc3c f21f 0d3d 0cd4 01bd b954 cbbc
000002a0: 213d 703c 9959 86ba 80b8 06bd f50f a7bc
000002b0: 0576 c8bc 1558 b33c 6cd6 81bd dbe9 3d3c
000002c0: d6a2 043d b76e 573c 13d5 2f39 08d1 0c3d
000002d0: 910b 01bc a264 4abd fd5f 693c b7a8 82bd
000002e0: 58ea 293c 55bd dabc f407 5dbd 7a31 093d
000002f0: 3c86 c03a 1013 49bc 55b1 393d ff03 45bb
00000300: a3cf 7ebc 5525 a33c 8daa 0ebd 2350 ceb8
00000310: e486 0fbd f6b7 febb 9589 e93b f3cd edbc
00000320: 7acd ba3c 17ca 983c 751f 0c3c 8a60 903d
00000330: 3147 6dbc 364f c03a f7eb 81bc f9f9 62bc
00000340: 2b82 abbc 94e5 efba 1605 eabc 0e3b 633c
00000350: d2d7 743c c743 e83a 29f5 b3bc 35ba 0cbc
00000360: c830 7d3c c33c 3d3c 9493 37bd 185f 3bbc
00000370: 544d 43bc 25fe f5bc 979f 90bc 76d5 273b
00000380: f497 933d 2253 683c 9c44 f4bb 718e b6bb
00000390: 278e d3bc 8e63 1cbd 508b 1fbc 7f24 1ebd
000003a0: 6633 15bd e29b c53c 1f89 7e3c 7c01 753c
000003b0: 3070 dcbc 1bfa c3bc 820b 53bd e731 413c
000003c0: c6b8 6fbd 166a d8bd cd6f 33bd a135 403c
000003d0: 0e6f 80bc 49d8 e8bc 87c4 663c c486 14bc
000003e0: 2b6e b7ba 7321 04bd 3014 c5bb 46b5 803b
000003f0: 2398 72bd cf5c 2fbc 5157 37bc 2b70 23bd

bias f4 [128]
-0.0046814457 0.004881416 0.025044434 0.018839817 -0.028437976 -0.037836272 -0.00013723361 0.019504698
0.0075331624 0.026830241 0.01336098 0.014545648 -0.013522742 -0.019642543 -0.05170101 0.011966785
0.0036896747 -0.006000534 -0.026523707 -0.04396717 -0.03743823 0.02725581 -0.044972185 -0.016580528
-0.00886655 0.006532798 -0.021049554 -0.016156439 0.0067431615 -0.039710186 -0.020204173 0.018738246
-0.027883422 0.028368548 -0.0038425808 0.020138856 -0.046263758 -0.044714775 -0.04176007 -0.025047291
-0.009003832 -0.018595291 -0.007579711 -0.024532463 0.00984135 0.0069195665 -0.0007189979 -0.051025584
-0.031485073 -0.04785773 -0.0014523134 0.00308463 -0.010094858 -0.06510314 -0.049245134 0.034402993
-0.02868655 -0.026797926 -0.009203045 0.020986795 0.009441503 -0.008181751 -0.014403589 -0.047257867
-0.035370365 0.023158668 -0.016636636 -0.020316806 0.03606564 0.03584151 -0.027728438 0.010096135
0.0058360845 0.01855909 0.016056882 -0.019141827 0.027879901 0.0012846938 0.015952114 -0.026312254
-0.047797546 -0.027557397 0.031405915 0.029657677 0.033873703 -0.0018196121 -0.03578096 -0.032779578
0.0068704737 -0.019231748 0.024239484 -0.042449087 0.018498115 0.02530272 0.029439626 -0.0033791005
-0.015730329 0.028354483 -0.020205868 -0.0038828652 -0.0069192895 -0.0076709944 0.040437315 -0.043957304
0.031206636 -0.010598923 -0.015473579 0.039070807 0.0051568043 -0.03530197 -0.0042831446 -0.03804958
-0.052060694 -0.0030865113 0.025925754 -0.036592994 -0.05881385 -0.029636381 0.0391632 -0.045771312
-0.004130328 -0.014182744 -0.042426202 -0.0019244824 -0.009263562 -0.031051666 -0.026891813 0.035581585
00000000: d066 99bb 49f4 9f3b fc29 cd3c f655 9a3c
00000010: c2f6 e8bc 35fa 1abd 5ee6 0fb9 51c8 9f3c
00000020: bfd8 f63b 18cb db3c 03e8 5a3c df50 6e3c
00000030: 7e8e 5dbc 66e9 a0bc 70c4 53bd 5610 443c
00000040: 78ce 713b 21a0 c4bb 3f48 d9bc eb16 34bd
00000050: d458 19bd 9447 df3c c134 38bd e3d3 87bc
00000060: 0245 11bc 1511 d63b 1d70 acbc 825a 84bc
00000070: bdf5 dc3b 26a7 22bd 3983 a5bc f380 993c
00000080: c66b e4bc 2865 e83c cfd3 7bbb 3efa a43c
00000090: 117f 3dbd d726 37bd 9b0c 2bbd fa2f cdbc
000000a0: cf84 13bc 2755 98bc 395f f8bb 4ef8 c8bc
000000b0: 9d3d 213c 88bd e23b 227b 3cba 3400 51bd
000000c0: 7ef6 00bd 7806 44bd 8d5b beba 8127 4a3b
000000d0: e764 25bc cc54 85bd 44b5 49bd 27ea 0c3d
000000e0: 0e00 ebbc 5387 dbbc 5ec8 16bc 80ec ab3c
000000f0: 89b0 1a3c c00c 06bc 08fd 6bbc 7791 41bd
00000100: 84e0 10bd 3fb7 bd3c 8e49 88bc 6e6f a6bc
00000110: 91b9 133d 8cce 123d c026 e3bc 426a 253c
00000120: a03c bf3b 3c09 983c b989 833c 52cf 9cbc
00000130: 6464 e43c 2c63 a83a 02ae 823c cc8c d7bc
00000140: 5cc7 43bd 0dc0 e1bc 7da3 003d a8f4 f23c
00000150: 27bf 0a3d 0d80 eeba 0e8f 12bd e143 06bd
00000160: b621 e13b e68b 9dbc e291 c63c 18df 2dbd
00000170: 5c89 973c a647 cf3c 5f2b f13c e673 5dbb
00000180: e4dc 80bc a947 e83c c786 a5bc ab77 7ebb
00000190: 35bb e2bb f75c fbbb 99a1 253d 930c 34bd
000001a0: 0fa5 ff3c 1ba7 2dbc e584 7dbc b608 203d
000001b0: 69fa a83b cc98 10bd 9f59 8cbb e0d9 1bbd
000001c0: 983d 55bd 1147 4abb 3f62 d43c 89e2 15bd
000001d0: cbe6 70bd ffc7 f2bc 9769 203d b37a 3bbd
000001e0: b457 87bb bd5e 68bc 19c7 2dbd ea3e fcba
000001f0: 32c6 17bc 1060 febc 384c dcbc ffbd 113d

weight f4 [128, 1152]
0.0130316345 0.016557317 -0.0081243375 -0.023839686 -0.017060665 -0.0007889102 0.004188911 0.021720888
-0.029408459 -0.031074302 0.0071152844 -0.00042881892 -0.0047359252 -0.020112209 0.00761208 -0.01643007
0.001606672 -0.027517254 -0.01951362 -0.01204353 0.010975943 -0.020172285 0.01220262 -0.0073443367
-0.030018875 0.00954846 -0.026719242 -0.02546721 0.016744079 0.028147088 0.021058466 -0.023416275
0.022229273 0.017590767 0.018443398 -0.0197552 -0.015276631 0.03143282 -0.014236139 0.012524036
0.017780608 0.008656931 -0.012053178 -0.012575461 -0.013348464 -0.03188269 -0.02158009 -0.033342835
-0.023268621 -0.0012486188 -0.01039753 2.5601905e-05 -0.01564809 0.022466691 -0.033654053 -0.021655206
0.0089743035 -0.0034139676 -0.0041964636 0.0070694294 -0.030944513 -0.010059045 0.021982651 -0.01964292
-0.020541247 -0.018896047 -0.012058941 -0.005279358 -0.014877187 -0.0073710866 -0.010527147 -0.03183881
0.020980567 0.006901481 0.016366469 0.0063393507 -0.027126322 -0.016614223 0.02268767 0.013077155
-0.014835317 -0.012017442 0.001985396 -0.017114399 -0.010364596 -0.031108176 -0.0011292757 -0.028807765
0.018298808 0.009854156 0.021711936 -0.02195339 -0.0042307246 -0.01078124 -0.010945554 -0.0043192315
-0.00018881286 0.0029458075 -0.031447392 0.012519925 -0.019211989 -0.010662257 -0.025949363 0.0014332666
0.010129364 -0.019113515 0.02625464 -0.016603043 -0.015718887 -0.03292463 -0.025205854 -0.0062041306
0.006551964 -0.02159473 0.021112505 -0.0076909782 -0.01668341 0.018644514 -0.024235195 -0.012743888
-0.027001163 -0.0171849 0.009074441 0.012062107 -0.025793172 -0.0031286555 -0.021194095 -0.0063590948
0.020140238 -0.009653182 -0.035310037 -0.022407869 0.014689567 0.020591885 -0.030646823 0.0093644345
-0.026248297 -0.013053725 0.017604543 -0.026631149 0.021421017 0.022469431 0.003013581 -0.009761956
0.020982387 -0.009863893 -0.0069850343 -0.012484284 -0.0040336717 -0.012271857 0.02063501 -0.024159372
-0.0001855238 0.0012835761 -0.021070193 -0.02459307 -0.031646516 0.008004537 0.019136947 -0.004784939
-0.006525357 -0.011087776 -0.001946603 0.012140749 -0.02927616 0.030913554 0.034215726 -0.028492404
0.009829592 -0.0037663362 0.012783221 0.0058709425 0.015613734 -0.015492457 -0.031834673 0.011478778
-0.0058203614 0.0025640477 -0.009013845 -0.027885977 0.0063421493 0.0043151323 0.013016039 0.006549903
-0.015652688 0.011766203 -0.018856773 -0.0046878457 0.021762695 0.009140848 -0.019099958 -0.027120493
-0.004086139 -0.027187644 -0.033564616 0.00068629615 -0.01533213 -0.020175116 -0.011785403 -0.0019881793
-0.0075637726 -0.031462204 0.009509186 0.020160528 0.012811574 -0.03483287 -0.01428319 0.020937009
0.019176845 -0.002976553 -0.026048401 -0.0005825584 -0.015578966 -0.022983544 0.018990573 0.015718894
0.023288896 -0.0034055877 0.0015213203 0.0026192674 -0.008800913 0.009014618 -0.015244552 -0.021812312
0.018470047 0.021963697 -0.002371501 0.02300002 0.02052981 0.019146197 -0.010492893 0.021701299
-0.023820844 0.0026471121 0.0022523014 0.0013532374 0.012486945 -0.011491636 0.0050378647 0.025982397
0.012843775 0.003487371 -0.034874562 0.006147812 -0.0056772144 0.00012821145 -0.0061005414 0.016269857
0.009019163 -0.0073628915 0.016750297 0.010502428 0.012046626 -0.026230993 -0.008641278 -0.033837967
00000000: a382 553c 36a3 873c f11b 05bc 724b c3bc
00000010: cfc2 8bbc dece 4eba 2243 893b 01f0 b13c
00000020: 02ea f0bc 898f febc 5527 e93b 1ad3 e0b9
00000030: d22f 9bbb 5cc2 a4bc c16e f93b 5b98 86bc
00000040: f796 d23a dd6b e1bc 07db 9fbc 3a52 45bc
00000050: 71d4 333c 5940 a5bc 7fed 473c c3a8 f0bb
00000060: 25ea f5bc 2571 1c3c 50e2 dabc 9ca0 d0bc
00000070: e12a 893c b994 e63c ce82 ac3c 7dd3 bfbc
00000080: 2a1a b63c 831a 903c 9c16 973c a8d5 a1bc
00000090: d64a 7abc b3bf 003d b23e 69bc 9d31 4d3c
000000a0: a3a8 913c cdd5 0d3c b17a 45bc 4e09 4ebc
000000b0: 84b3 5abc 6c97 02bd bbc8 b0bc 7f92 08bd
000000c0: d69d bebc b2a8 a3ba 675a 2abc acc3 d637
000000d0: 6c30 80bc 110c b83c d5d8 09bd 4266 b1bc
000000e0: f508 133c dfbc 5fbb 7d82 89bb aca6 e73b
000000f0: 597f fdbc b1ce 24bc f614 b43c 30ea a0bc
00000100: 1e46 a8bc e2cb 9abc dd92 45bc 77fe acbb
00000110: 72bf 73bc 2889 f1bb 0e7a 2cbc 6969 02bd
00000120: 70df ab3c d225 e23b f912 863c 54ba cf3b
00000130: 0538 debc 8d1a 88bc 7edb b93c 9041 563c
00000140: d40f 73bc cee4 44bc 6b1d 023b 7f33 8cbc
00000150: 44d0 29bc 93d6 febc 3404 94ba 43fe ebbc
00000160: 62e7 953c 5373 213c 3bdd b13c 99d7 b3bc
00000170: e4a1 8abb cca3 30bc fb54 33bc 5788 8dbb
00000180: 11fc 45b9 730e 413b fbce 00bd 5f20 4d3c
00000190: 7662 9dbc bfb0 2ebc c293 d4bc 72dc bb3a
000001a0: a2f5 253c f293 9cbc f913 d73c 1b03 88bc
000001b0: e5c4 80bc fadb 06bd 827c cebc 054c cbbb
000001c0: dcb1 d63b 6ee7 b0bc 22f4 ac3c 9a04 fcbb
000001d0: a6ab 88bc 61bc 983c e388 c6bc becb 50bc
000001e0: 8b31 ddbc 59c7 8cbc f7ac 143c 25a0 453c
000001f0: 344c d3bc 210a 4dbb 3d9f adbc f45f d0bb
00000200: 24fd a43c 6128 1ebc 42a1 10bd b590 b7bc
00000210: 82ac 703c 50b0 a83c 0c0f fbbc 496d 193c
00000220: ab06 d7bc 4adf 55bc 6737 903c 9129 dabc
00000230: 217b af3c d011 b83c 807f 453b 9cf0 1fbc
00000240: 41e3 ab3c 2a9c 21bc b7e2 e4bb e28a 4cbc
00000250: e42c 84bb e60f 49bc c10a a93c e0e9 c5bc
00000260: 2a89 42b9 ab3d a83a 669b acbc 6877 c9bc
00000270: c79f 01bd 7625 033c 16c5 9c3c faca 9cbb
00000280: a9d2 d5bb 81a9 35bc 2825 ffba fee9 463c
00000290: 8fd4 efbc 6c3e fd3c ca25 0c3d e768 e9bc
000002a0: 4c0c 213c a3d4 76bb b770 513c 0961 c03b
000002b0: bfd0 7f3c 13d4 7dbc 1365 02bd 7c11 3c3c
000002c0: bbb8 bebb 9509 283b ceae 13bc 2271 e4bc
000002d0: ced1 cf3b f465 8d3b 3941 553c 92a0 d63b
000002e0: 113a 80bc 08c7 403c 8579 9abc 809c 99bb
000002f0: ae47 b23c 7fc3 153c 8477 9cbc cc2b debc
00000300: 05e5 85bb 9fb8 debc 0d7b 09bd 8ee8 333a
00000310: 9d33 7bbc 4946 a5bc 9017 41bc 1d4c 02bb
00000320: 86d9 f7bb 83de 00bd 6bcc 1b3c b127 a53c
00000330: a3e7 513c e9ac 0ebd 0a04 6abc 1784 ab3c
00000340: c218 9d3c 4612 43bb 7563 d5bc d5b6 18ba
00000350: eb3e 7fbc fc47 bcbc 1e92 9b3c e9c4 803c
00000360: 5bc8 be3c 4830 5fbb 0a67 c73a 04a8 2b3b
00000370: b431 10bc 0cb2 133c 49c4 79bc bcaf b2bc
00000380: 7f4e 973c 36ed b33c 2f6b 1bbb 8a6a bc3c
00000390: 222e a83c 7cd8 9c3c 62ea 2bbc ecc6 b13c
000003a0: ee23 c3bc 2c7b 2d3b 599b 133b 1d5f b13a
000003b0: 0b96 4c3c 6a47 3cbc ac14 a53b 09d9 d43c
000003c0: b26e 523c 608c 643b a1d8 0ebd 9673 c93b
000003d0: ed07 babb 8070 0639 0de7 c7bb 5d48 853c
000003e0: 1dc5 133c 6944 f1bb eb37 893c 6012 2c3c
000003f0: 365f 453c 61e2 d6bc 2694 0dbc ae99 0abd

bias f4 [128]
-0.009594276 0.014058232 0.0017943401 -0.01455176 0.006848028 0.0070279622 -0.021198114 0.023057446
0.006832782 -0.014124912 -0.0050916146 0.028827433 -0.010576152 -0.024621274 -0.013903013 0.01437549
-0.029467022 -0.008381882 -0.0008183335 -0.014824889 0.005981562 0.0017312211 -0.033971075 0.01906786
0.0031310557 -0.017026266 0.008960823 -0.0233275 -0.013205899 0.018369617 -0.009927871 0.008024181
-0.008329267 0.0032024097 -0.006757253 -0.0030106348 -0.018293587 -0.0025062317 -0.0072318874 0.018152947
0.012299459 -0.0059656184 0.018542973 0.0064304904 0.007565818 0.020255618 -0.011547055 0.0061061312
-0.005565393 -0.00033454277 0.019863928 -0.026868744 -0.024776036 0.024036214 -0.014990271 -0.014364239
-0.017949203 0.01632395 0.012267112 0.0012218512 -0.024672385 0.0031070963 -0.01678991 -0.003995356
0.0102737555 0.01894242 0.0075540408 0.00853095 0.008635881 0.01296678 -0.030298056 -0.00895543
-0.010402268 -0.018716266 0.027305098 0.026728544 0.0124546485 0.011065937 0.009830725 -0.012088888
-0.017571026 -0.00653431 0.008847885 -0.024432465 -0.029785959 -0.0219294 -0.027240133 0.02623791
-0.0068365103 -0.0116833495 0.020473484 -0.0073466063 -0.016032876 0.02411806 0.015957182 0.0019190685
-0.011072279 0.004449269 0.01845367 -0.016920106 -0.020020569 -0.018207423 0.029332647 -0.017079411
0.014795781 0.026580716 -0.023234576 0.0022904442 -0.021535272 0.00081807387 -0.010856506 -0.0045347135
-0.00080402667 0.019704517 0.038102146 -0.011417081 -0.008800731 0.01777127 0.021386616 0.022379551
0.00047869934 -0.021816667 -0.023831882 4.4070595e-05 0.009112684 0.022999689 0.0041126935 -0.0162949
00000000: 4f31 1dbc 8054 663c 1030 eb3a 816a 6ebc
00000010: 6c65 e03b d24a e63b aba7 adbc f8e2 bc3c
00000020: 88e5 df3b 2d6c 67bc 8fd7 a6bb 8227 ec3c
00000030: 9947 2dbc 8eb2 c9bc 77c9 63bc 2d87 6b3c
00000040: d364 f1bc 2954 09bc 6e85 56ba 17e4 72bc
00000050: fb00 c43b 24ea e23a 4125 0bbd 3334 9c3c
00000060: 6632 4d3b ab7a 8bbc 6ad0 123c 5019 bfbc
00000070: 8e5d 58bc e17b 963c 82a8 22bc db77 033c
00000080: 7a77 08bc 85df 513b f26b ddbb 124e 45bb
00000090: 6fdc 95bc 973f 24bb 78f9 ecbb 7db5 943c
000000a0: ac83 493c 3c7b c3bb 6fe7 973c ddb6 d23b
000000b0: aeea f73b 1cef a53c dc2f 3dbc f115 c83b
000000c0: e65d b6bb 9265 afb9 adb9 a23c d71b dcbc
000000d0: 1df7 cabc 98e7 c43c c199 75bc fc57 6bbc
000000e0: 350a 93bc ceb9 853c fffb 483c 8626 a03a
000000f0: be1d cabc 6da0 4b3b fe8a 89bc 7aeb 82bb
00000100: 4153 283c 222d 9b3c e387 f73b 66c5 0b3c
00000110: 837d 0d3c 9e72 543c a133 f8bc ccb9 12bc
00000120: 466e 2abc db52 99bc f1ae df3c d2f5 da3c
00000130: 950e 4c3c e74d 353c 0d11 213c 7910 46bc
00000140: 1df1 8fbc c41d d6bb b8f6 103c 9826 c8bc
00000150: af01 f4bc 49a5 b3bc b326 dfbc e3f0 d63c
00000160: ce04 e0bb 856b 3fbc 02b8 a73c cdbb f0bb
00000170: 6157 83bc 3d93 c53c a3b8 823c 4189 fb3a
00000180: 8168 35bc 2ccb 913b 272c 973c 099c 8abc
00000190: 2d02 a4bc bc27 95bc 054b f03c 1fea 8bbc
000001a0: 016a 723c cdbf d93c 7056 bebc 471b 163b
000001b0: bd6a b0bc 0274 563a 7ddf 31bc ef97 94bb
000001c0: 51c5 52ba 5e6b a13c ff10 1c3d b50e 3bbc
000001d0: f130 10bc 0e95 913c fc32 af3c 5255 b73c
000001e0: f0f9 fa39 deb8 b2bc 143b c3bc 71d8 3838
000001f0: 5e4d 153c d869 bc3c c6c3 863b e27c 85bc

weight f4 [10, 128]
-0.06916276 0.047429685 -0.072153434 -0.007603919 0.071811095 -0.09030488 0.04611036 0.03238553
-0.08906733 -0.016526436 0.07842232 -0.083461136 0.08590803 -0.029450784 0.050345115 0.062220678
-0.06406069 0.07347142 -0.097452305 0.030703805 -0.02416965 0.062067453 0.06933531 -0.09315207
-0.07327511 -0.10762088 -0.018766582 0.08127602 0.08765125 -0.07222902 0.01831769 -0.08108465
0.09629026 -0.09317569 -0.07908471 -0.06965873 -0.07628823 0.086812735 0.042190135 0.09303595
-0.08803884 -0.07088524 -0.08401669 -0.08073332 -0.07073056 0.08043647 -0.09055281 0.031435892
0.03666595 -0.05856746 0.047198422 -0.03258055 0.031374823 -0.008511417 -0.0949823 -0.08320775
-0.019900441 0.006239682 -0.017504087 0.0348561 -0.08530527 -0.009109761 -0.08292198 -0.05144194
0.05837881 -0.08241655 0.0825318 -0.0969454 -0.007150808 0.036342695 -0.023414442 -0.022380907
0.053268794 0.02126624 -0.08617603 0.016503239 -0.024873033 0.060634695 -0.055668272 -0.0205812
-0.04559608 0.032249298 -0.0026176393 -0.03638494 -0.07663071 -0.06312666 -0.056059994 -0.04322642
0.05329513 0.03906634 0.0007351596 -0.03665285 -0.05135866 0.09464947 -0.07040336 0.031227
-0.09234031 -0.11111138 -0.019306269 -0.12093531 -0.06678762 -0.026433185 0.074197434 0.016388483
0.0878378 0.051107485 0.055077627 0.06785755 -0.03732078 -0.03513893 0.057409253 -0.02207674
-0.038480036 0.026981488 0.045796536 -0.015660224 0.009323331 0.050781913 -0.044909354 0.029004425
-0.11859433 0.089456916 0.01677003 0.07878747 -0.012350303 -0.021327497 -0.02677186 0.06562474
0.020148586 0.07864819 0.07045771 -0.11418132 -0.11092549 -0.072659984 0.024090007 0.09263004
-0.019390268 -0.05712419 0.0017345396 0.05032981 0.08273061 -0.01129932 -0.052349396 0.050327472
-0.053581864 0.056591883 0.052540112 0.019964568 0.05231687 -0.08951412 -0.05893313 -0.017851718
-0.011466729 -0.021590872 0.060666732 -0.06581393 0.017566903 0.032394648 -0.039682295 0.09246087
-0.08565432 -0.040306125 0.04071384 0.011684159 -0.0943235 -0.027742518 0.06018794 -0.06972795
-0.0390312 0.059518617 -0.06298172 0.056060437 0.0007808323 -0.07300937 -0.082634225 0.083988436
0.041566912 0.046527456 0.060173307 -0.030570142 -0.053768847 0.06829601 0.07822095 -0.04877986
-0.07220763 -0.10501148 -0.022562666 0.06013564 0.0481989 0.0008014987 -0.015215604 -0.07550734
0.0780199 0.05377054 -0.063930415 -0.059925426 -0.03332746 -0.06211955 0.07926968 0.074024424
-0.09991206 -0.116882674 0.084959656 -0.046494737 0.06420089 0.04149737 -0.077916056 0.025376484
0.037999753 0.05334174 -0.017566955 0.06667123 -0.07376534 0.017241463 0.0013238543 0.05306781
0.076863155 0.036446817 0.084313646 0.025437186 0.0331794 -0.07646946 0.07254802 -0.06593196
0.00089741196 -0.050581284 -0.08295392 0.030986022 0.050580792 -0.06741114 0.08268125 0.06613986
0.01978878 -0.0438934 0.07494951 -0.077944614 0.021704106 -0.012669922 0.04749308 -0.030755846
0.052580178 -0.02196761 0.033351764 -0.031294066 0.0040053558 0.0148535045 0.083018005 -0.028194183
0.010906303 -0.06237932 -0.08184697 -0.057503596 0.076839924 -0.057175953 0.007544706 -0.047617525
00000000: 35a5 8dbd a145 423d 2ec5 93bd 4c2a f9bb
00000010: b211 933d c4f1 b8bd 38de 3c3d b1a6 043d
00000020: ef68 b6bd 7362 87bc e29b a03d aced aabd
00000030: 8df0 af3d c542 f1bc ae36 4e3d 1cdb 7e3d
00000040: 4032 83bd 2f78 963d 1395 c7bd 8c86 fb3c
00000050: 6eff c5bc 713a 7e3d acff 8d3d 83c6 bebd
00000060: 4311 96bd 5668 dcbd 60bc 99bc 0b74 a63d
00000070: 8082 b33d cfec 93bd fb0e 963c b50f a6bd
00000080: d433 c53d e5d2 bebd 2af7 a1bd 3ca9 8ebd
00000090: 013d 9cbd e0ca b13d 90cf 2c3d a289 be3d
000000a0: b54d b4bd 482c 91bd f110 acbd 8357 a5bd
000000b0: 2fdb 90bd e0bb a43d c073 b9bd ecc2 003d
000000c0: 092f 163d 6fe4 6fbd 2253 413d 2f73 05bd
000000d0: e382 003d 7873 0bbc 1586 c2bd d368 aabd
000000e0: 4006 a3bc 3f76 cc3b bb64 8fbc 45c5 0e3d
000000f0: 88b4 aebd 1b41 15bc 00d3 a9bd c9b4 52bd
00000100: 9e1e 6f3d 02ca a8bd 6f06 a93d 4f8b c6bd
00000110: 5351 eabb 14dc 143d a5cf bfbc 2a58 b7bc
00000120: 6130 5a3d 8a36 ae3c 0f7d b0bd cd31 873c
00000130: 88c2 cbbc 165c 783d 6a04 64bd e899 a8bc
00000140: f5c2 3abd d717 043d b38c 2bbb 6008 15bd
00000150: 90f0 9cbd 8d48 81bd 2a9f 65bd 300e 31bd
00000160: ff4b 5a3d 0704 203d bab7 403a 4d21 16bd
00000170: 755d 52bd 95d7 c13d a32f 90bd c4cf ff3c
00000180: eb1c bdbd 5d8e e3bd 2e28 9ebc efac f7bd
00000190: f3c7 88bd 688a d8bc d3f4 973d 2441 863c
000001a0: 4ee4 b33d 1556 513d 1499 613d e6f8 8a3d
000001b0: addd 18bd d7ed 0fbd f725 6b3d 48da b4bc
000001c0: 3e9d 1dbd 4808 dd3c 2695 3b3d df49 80bc
000001d0: e2c0 183c b200 503d dff2 37bd b09a ed3c
000001e0: 96e1 f2bd 3035 b73d 4d61 893c 535b a13d
000001f0: ed58 4abc 01b7 aebc a950 dbbc 4466 863d
00000200: a60e a53c 4d12 a13d 224c 903d e5d7 e9bd
00000210: e72c e3bd c2ce 94bd 6858 c53c d2b4 bd3d
00000220: 57d8 9ebc 0efb 69bd 7e59 e33a a126 4e3d
00000230: ab6e a93d c820 39bc 526c 56bd 2e24 4e3d
00000240: a878 5bbd e4cc 673d 4d34 573d bc8c a33c
00000250: 374a 563d 2e53 b7bd de63 71bd c43d 92bc
00000260: f3de 3bbc 57df b0bc ae7d 783d 74c9 86bd
00000270: 77e8 8f3c 40b0 043d e789 22bd 205c bd3d
00000280: 886b afbd 0918 25bd 8ec3 263d ea6e 3f3c
00000290: ae2c c1bd 4744 e3bc a187 763d 87cd 8ebd
000002a0: 2edf 1fbd cbc9 733d 8ffc 80bd a19f 653d
000002b0: c5b0 4c3a f085 95bd 223c a9bd 2102 ac3d
000002c0: 1142 2a3d 9393 3e3d 4978 763d 3c6e fabc
000002d0: b93c 5cbd c7de 8b3d 4e32 a03d 64cd 47bd
000002e0: 98e1 93bd 4210 d7bd 57d5 b8bc ca50 763d
000002f0: 366c 453d ab1b 523a de4a 79bc 98a3 9abd
00000300: e6c8 9f3d 7f3e 5c3d f3ed 82bd 5d74 75bd
00000310: 6082 08bd 1271 7ebd 2458 a23d 1e9a 973d
00000320: b29e ccbd 2f60 efbd 54ff ad3d 4471 3ebd
00000330: c27b 833d 25f9 293d 7492 9fbd 58e2 cf3c
00000340: a1a5 1b3d de7c 5a3d 93e8 8fbc ed8a 883d
00000350: 4812 97bd f83d 8d3c 2e85 ad3a a25d 593d
00000360: 6e6a 9d3d 4249 153d a2ac ac3d a561 d03c
00000370: 1fe7 073d 059c 9cbd 0e94 943d 5607 87bd
00000380: 4c40 6b3a 522e 4fbd bfe3 a9bd 66d6 fd3c
00000390: ce2d 4f3d da0e 8abd ca54 a93d 5674 873d
000003a0: 141c a23c 91c9 33bd 217f 993d 6da1 9fbd
000003b0: cfcc b13c 8195 4fbc 1b88 423d aff3 fbbc
000003c0: 505e 573d 6bf5 b3bc dc9b 083d 352e 00bd
000003d0: 5c3f 833b 1d5c 733c 5805 aa3d 7df7 e6bc
000003e0: 5ab0 323c 7581 7fbd 629f a7bd e488 6bbd
000003f0: 405e 9d3d 5531 6abd 9539 f73b 980a 43bd

bias f4 [10]
0.020570619 0.029395794 0.038481697 0.014091892 0.044001497 -0.06733691 0.071948566 -0.0048436783
0.08332039 0.07063394
00000000: b783 a83c 73cf f03c fc9e 1d3d aee1 663c
00000010: ea3a 343d efe7 89bd c559 933d b8b7 9ebb
00000020: e1a3 aa3d 87a8 903d
